lab4/params_without0.pt (torch, 83230 bytes, 14 tensors)

stack.0.2.weight f4 [32, 1, 3, 3]
-0.24097176 -0.30522618 -0.1959298 -0.18695082 0.14038734 0.25485247 -0.28653213 -0.06411709
0.071471006 0.17446874 0.034839828 -0.010987153 -0.34436586 -0.15195979 0.14002582 -0.0251224
0.22285633 0.028793355 -0.025358157 0.06599546 0.30514383 -0.020670488 -0.072034284 0.2947634
-0.28851035 -0.24951668 0.02904751 -0.19938645 -0.09681379 -0.25519225 -0.1291421 0.1717545
0.12727684 -0.2160502 -0.09124409 0.19566995 0.14757863 0.12053847 -0.30974197 -0.024286814
-0.10670482 -0.10828159 -0.16392519 -0.25499716 -0.115092516 -0.20062006 0.1581758 0.07834746
-0.276942 0.039578427 -0.055107135 -0.10908927 -0.28022078 -0.06622854 -0.112002864 0.15296431
-0.15122917 -0.18989563 0.09754436 0.15992752 -0.03205322 0.12999174 0.2426461 -0.06321265
0.18686947 -0.30667204 -0.2871013 0.09939656 0.27392235 0.057394363 -0.13884178 -0.18388723
0.12885188 -0.19543491 0.01908895 0.24450998 -0.067372456 0.35498372 0.2281793 -0.08275559
-0.13653946 0.097072676 -0.11542142 -0.1168159 0.09872096 -0.037824046 -0.12535135 -0.31116736
-0.08245812 -0.08404549 0.3149931 0.12578976 0.06387933 0.20634511 -0.19358967 -0.11204499
-0.25944915 -0.2791334 0.21938536 -0.08564569 0.26068988 -0.1718025 0.17925625 0.010936796
0.3571144 -0.18638761 -0.023812339 -0.059701424 -0.17562908 -0.17573024 0.059428073 -0.04437532
-0.12874603 0.18131071 -0.15979631 -0.22980686 -0.32773396 0.12468866 0.060943045 0.17209396
0.029081881 -0.28019735 -0.2437899 0.19065894 0.16729636 0.036250398 -0.1877982 -0.08389456
-0.2988655 -0.1877093 0.008339089 0.09116078 0.039417535 0.24525739 0.24371555 -0.14177205
0.043357637 0.27394393 0.08385844 -0.12393597 -0.09049853 0.2102272 -0.06678384 -0.09064468
-0.19293952 -0.3121993 -0.02579006 0.010345594 0.19234283 0.12124633 0.35737243 -0.12419461
0.068000145 0.03641798 0.15758374 0.082597494 -0.03187761 -0.09658299 0.315334 -0.32126078
0.1624611 0.25251016 0.4027809 -0.3021836 -0.06228459 0.21033622 -0.053513594 0.03779057
0.09449095 -0.21454021 0.22690575 0.012287821 0.06887438 -0.136706 0.25280783 0.17128918
-0.118343875 0.24921139 0.31442398 -0.212562 0.17652126 -0.0087655485 -0.078079954 0.048723094
0.36135992 0.21492192 -0.31883729 0.2714142 0.14775535 0.25385714 -0.299345 -0.3733956
0.13277973 -0.3508885 0.15625298 0.027017718 -0.23091467 0.0022361137 0.20468041 0.15718801
-0.23378627 0.19242404 0.009751033 -0.08326319 0.26079664 -0.2680744 -0.26199558 -0.1856813
0.017720332 0.2859911 -0.04055939 0.31123313 -0.13598786 0.03357645 0.037425376 -0.10320532
0.12052977 0.22721574 -0.12167998 0.099543035 0.050260443 0.34953558 -0.10448214 -0.30095142
-0.31507418 -0.15203565 0.012031729 -0.10111625 0.26405415 -0.25135067 -0.27284616 0.14573833
0.20560248 0.303444 0.23160923 0.10209253 0.18067515 -0.3082097 0.1275698 -0.07735436
-0.05881859 -0.34842768 -0.23054728 -0.26439008 -0.1655671 0.10471804 -0.26266637 0.2310591
0.2552961 -0.11392386 0.2458397 0.057352275 0.07910268 -0.26106015 0.08971747 0.21153802
00000000: 4dc1 76be 9b46 9cbe d2a1 48be 0970 3fbe
00000010: b3c1 0f3e 067c 823e 57b4 92be d24f 83bd
00000020: 645f 923d efa7 323e 35b4 0e3d 7603 34bc
00000030: b950 b0be 599b 1bbe ee62 0f3e 7ecd cdbc
00000040: 7334 643e 0be0 eb3c e9bb cfbc a128 873d
00000050: d03b 9c3e 2855 a9bc b686 93bd 3aeb 963e
00000060: a1b7 93be 4d81 7fbe 0bf5 ed3c f62b 4cbe
00000070: 4f46 c6bd 8fa8 82be d43d 04be 69e0 2f3e
00000080: dc54 023e 433c 5dbe 2ede babd b45d 483e
00000090: da1e 173e e0dc f63d 8096 9ebe 24f5 c6bc
000000a0: 0f88 dabd bdc2 ddbd 01dc 27be fd8e 82be
000000b0: a0b5 ebbd 586f 4dbe d6f8 213e a274 a03d
000000c0: 58cb 8dbe fd1c 223d 05b8 61bd 326a dfbd
000000d0: 1979 8fbe d4a2 87bd c261 e5bd ada2 1c3e
000000e0: d2db 1abe 0074 42be 56c5 c73d 0ac4 233e
000000f0: 3d4a 03bd 8e1c 053e 3878 783e a275 81bd
00000100: b65a 3f3e 1e04 9dbe f1fe 92be 6c90 cb3d
00000110: 8d3f 8c3e 5a16 6b3d 8a2c 0ebe ef4c 3cbe
00000120: bff1 033e 1720 48be 6e60 9c3c d360 7a3e
00000130: 92fa 89bd 6dc0 b53e d6a7 693e c37b a9bd
00000140: 00d1 0bbe 0ace c63d 1162 ecbd 2d3d efbd
00000150: 372e ca3d 63ed 1abd 1b5c 00be 5451 9fbe
00000160: cedf a8bd 0b20 acbd c746 a13e 08cf 003e
00000170: 2bd3 823d 224c 533e 5f3c 46be d877 e5bd
00000180: 85d6 84be 93ea 8ebe 8ea6 603e 0267 afbd
00000190: 2579 853e ffec 2fbe f38e 373e 3f30 333c
000001a0: b3d7 b63e 65dc 3ebe 1812 c3bc 7b89 74bd
000001b0: 1cd8 33be a1f2 33be da6a 733d e5c2 35bd
000001c0: 00d6 03be 84a9 393e a5a1 23be 7d52 6bbe
000001d0: bfcc a7be c55c ff3d 6a9f 793d 6639 303e
000001e0: 203d ee3c 0776 8fbe 0fa4 79be 193c 433e
000001f0: bd4f 2b3e 4c7b 143d 2c4e 40be e9d0 abbd
00000200: e604 99be de36 40be ada0 083c 81b2 ba3d
00000210: 4874 213d c124 7b3e 9290 793e b12c 11be
00000220: c797 313d 6142 8c3e f9bd ab3d 24d2 fdbd
00000230: 4b57 b9bd cd45 573e f7c5 88bd eba3 b9bd
00000240: f091 45be 96d8 9fbe ad45 d3bc 9180 293c
00000250: 85f5 443e ff4f f83d 85f9 b63e be59 febd
00000260: a943 8b3d 052b 153d a25d 213e e028 a93d
00000270: 1992 02bd 4dcd c5bd 7573 a13e 4b7c a4be
00000280: 345c 263e 0349 813e 4c39 ce3e cfb7 9abe
00000290: 201e 7fbd 6162 573e 1231 5bbd 49ca 1a3d
000002a0: 7984 c13d 6eb0 5bbe fb59 683e db52 493c
000002b0: 030e 8d3d a8fc 0bbe 0770 813e 6e66 2f3e
000002c0: 465e f2bd 4531 7f3e 2efc a03e daa9 59be
000002d0: fdc1 343e 609d 0fbc 62e8 9fbd de91 473d
000002e0: 2b04 b93e 7e14 5c3e a43e a3be cdf6 8a3e
000002f0: 2e4d 173e 90f9 813e bf43 99be b52d bfbe
00000300: 69f7 073e a8a7 b3be c800 203e 4354 dd3c
00000310: e574 6cbe c38b 123b be97 513e e5f5 203e
00000320: ab65 6fbe cf0a 453e ccc2 1f3c e485 aabd
00000330: 2387 853e 0c41 89be 4924 86be 3d23 3ebe
00000340: 3b2a 913c 6d6d 923e 9a21 26bd f359 9f3e
00000350: 6740 0bbe 7687 093d 5a4b 193d 505d d3bd
00000360: 50d8 f63d 3eab 683e 5a33 f9bd 38dd cb3d
00000370: e5dd 4d3d 54f6 b23e bbfa d5bd 4e16 9abe
00000380: 6751 a1be 3caf 1bbe bb20 453c 0916 cfbd
00000390: 1b32 873e 09b1 80be 7eb2 8bbe 6e3c 153e
000003a0: 7589 523e 035d 9b3e f82a 6d3e e315 d13d
000003b0: e802 393e a9cd 9dbe a8a1 023e f66b 9ebd
000003c0: c3eb 70bd 1d65 b2be 9614 6cbe 235e 87be
000003d0: 6c8a 29be 6976 d63d 357c 86be c29a 6c3e
000003e0: 2cb6 823e ea50 e9bd 67bd 7b3e 38ea 6a3d
000003f0: 9600 a23d ada9 85be cbbd b73d 6c9d 583e

stack.0.2.bias f4 [32]
0.25375682 0.17542279 0.23851529 -0.20247093 -0.24206494 0.0058096936 -0.14237739 -0.24845907
0.18032321 -0.2612846 0.14574158 -0.02152413 0.00838989 -0.25476354 -0.2936693 -0.20110613
0.092259556 0.2513922 0.20099732 -0.2045137 -0.13584338 0.09114547 0.07839924 0.04995158
-0.3068731 -0.22115567 -0.2297201 -0.16990738 0.06790426 -0.116138466 -0.04713813 0.10223216
00000000: 6aec 813e 08a2 333e 5a3d 743e 8a54 4fbe
00000010: dfdf 77be 3e5f be3b 61cb 11be 0e6c 7ebe
00000020: a6a6 383e 18c7 85be 483d 153e 5f53 b0bc
00000030: c075 093c 5e70 82be d35b 96be c4ee 4dbe
00000040: 94f2 bc3d 7ab6 803e 3ed2 4d3e 0a6c 51be
00000050: 871a 0bbe 7aaa ba3d c88f a03d 079a 4c3d
00000060: 791e 9dbe a276 62be bf3b 6bbe 33fc 2dbe
00000070: 6311 8b3d 01da edbd e913 41bd 185f d13d

stack.2.0.weight f4 [32]
1.0587707 0.9718511 1.1034151 0.9881812 1.0531235 1.1425272 0.902657 0.9673489
0.92242795 1.0888203 1.0313002 0.89565355 1.1542715 0.91397834 0.9866915 0.9333484
1.0741028 0.83853096 0.9205377 0.9447257 0.8385262 0.9917559 0.98984903 1.0236295
0.99240226 0.9925504 1.1364979 0.8971656 1.0529628 0.91175944 1.0096011 1.1024472
00000000: cc85 873f 3ccb 783f b53c 8d3f 71f9 7c3f
00000010: c0cc 863f 553e 923f 8714 673f 2da4 773f
00000020: 3d24 6c3f 775e 8b3f a501 843f 8d49 653f
00000030: 2bbf 933f 7cfa 693f d097 7c3f ecef 6e3f
00000040: 337c 893f f7a9 563f 5ca8 6b3f 8bd9 713f
00000050: a7a9 563f b7e3 7d3f bf66 7d3f 4b06 833f
00000060: 130e 7e3f c817 7e3f c378 913f a5ac 653f
00000070: 7cc7 863f 1169 693f 9c3a 813f fd1c 8d3f

stack.2.0.bias f4 [32]
-0.032441784 0.053517338 0.16376677 0.06952371 0.08209603 0.085488155 -0.046356842 -0.017019235
0.017746905 0.12416934 0.026570847 -0.10488415 0.10017399 -0.02664811 -0.058733646 0.07397163
0.08996687 -0.06667458 0.005253666 0.041438002 -0.115503825 0.04998604 0.01937944 0.107480034
-0.011191721 -0.00863335 0.079647884 -0.016330557 0.02003826 0.05754426 0.04888272 0.08558285
00000000: ade1 04bd ff34 5b3d 7ab2 273e 7262 8e3d
00000010: f721 a83d 6a14 af3d ace0 3dbd ec6b 8bbc
00000020: f561 913c 7f4c fe3d 1bab d93c 80cd d6bd
00000030: 0528 cd3d 234d dabc b192 70bd 707e 973d
00000040: 8d40 b83d af8c 88bd f226 ac3b e5ba 293d
00000050: 458d ecbd 29be 4c3d a2c1 9e3c 7e1e dc3d
00000060: 7b5d 37bc e572 0dbc 6e1e a33d a9c7 85bc
00000070: 4727 a43c 88b3 6b3d 3f39 483d 1046 af3d

stack.2.0.running_mean f4 [32]
0.23585024 0.3507652 0.48757985 -0.17358394 -0.28443995 -0.052938584 0.16146432 -0.26296607
0.54674953 -0.31670955 0.42191115 0.23251376 -0.11242057 -0.014834834 -0.082981095 -0.038113914
0.3322498 0.7012635 0.5187781 0.2939 0.43986285 0.11225302 0.34856504 0.28897217
-0.08054334 0.045149487 -0.13180257 0.15146226 0.15100402 0.3313136 0.21627033 0.34335846
00000000: ba82 713e 7f97 b33e 11a4 f93e fdbf 31be
00000010: 1da2 91be 21d6 58bd e756 253e 7da3 86be
00000020: c7f7 0b3f c127 a2be bd04 d83e 1618 6e3e
00000030: c13c e6bd ce0d 73bc fef1 a9bd 561d 1cbd
00000040: a51c aa3e 0186 333f a4ce 043f 107a 963e
00000050: b435 e13e e9e4 e53d 1e77 b23e 29f4 933e
00000060: e8f3 a4bd abee 383d 41f7 06be ec18 1b3e
00000070: cca0 1a3e f0a1 a93e f875 5d3e aecc af3e

stack.2.0.running_var f4 [32]
0.06571947 0.04874338 0.15965053 0.037805296 0.058988586 0.045219615 0.16198999 0.010272645
0.18566623 0.03811485 0.13869348 0.109183 0.08570031 0.07896252 0.12823349 0.04183812
0.121182404 0.32765615 0.14415129 0.4219275 0.4885306 0.06513273 0.19257176 0.10403461
0.1311681 0.14304759 0.07523051 0.23521647 0.051330917 0.24388635 0.12667865 0.14765601
00000000: ee97 863d 23a7 473d 6e7b 233e bad9 1a3d
00000010: 049e 713d 3438 393d b4e0 253e 994e 283c
00000020: 4a1f 3e3e 511e 1c3d aa05 0e3e 569b df3d
00000030: a583 af3d 1ab7 a13d a44f 033e 735e 2b3d
00000040: 7b2e f83d 8cc2 a73e 659c 133e e206 d83e
00000050: af20 fa3e 4f64 853d 8831 453e 1910 d53d
00000060: ee50 063e 117b 123e 7412 9a3d 96dc 703e
00000070: 5e40 523d 58bd 793e 0cb8 013e 2333 173e

stack.2.2.weight f4 [32, 32, 3, 3]
0.079279654 -0.023695854 0.020184023 0.034695324 0.052986465 0.073262386 0.02229995 0.0019049449
-0.046162277 0.049731284 -0.07071099 0.004937012 -0.011526004 -0.02123054 -0.019129511 -0.0068319365
0.0040772404 0.020209352 0.009751524 -0.14207645 -0.09500581 -0.013542348 -0.0842274 -0.03985395
0.01935248 -0.026682237 0.0272072 0.0566772 -0.0033386813 0.017173417 -0.035423916 -0.020977268
0.0074518817 0.03720407 0.05461495 0.04020428 0.07629285 0.059305113 -0.038895387 0.10777189
0.12851651 0.047548253 0.017177908 0.07333763 -0.019104756 0.11274341 0.037843302 0.007831091
0.09597971 0.10039261 -0.038755428 0.043486025 -0.054642897 -0.025620406 0.0059077065 -0.05972885
-0.0062159584 0.051278025 0.019100174 -0.012102272 0.047004588 -0.04300523 0.040012203 0.10206658
0.024579875 -0.08654842 0.12968546 -0.035212617 -0.06820167 -0.0554724 -0.12537447 0.008464696
0.013054685 -0.03503353 -0.047452107 0.045216028 0.014931648 -0.05839517 -0.015099915 -0.018655544
-0.028785124 0.03358624 0.023314012 0.10386269 0.04055758 0.014711007 0.055727214 0.021336045
-0.02058733 -0.034070313 -0.038138974 0.0010375662 -0.080491066 -0.00918363 -0.02165371 -0.045537032
0.030111225 -0.023555184 0.0029083155 -0.0038187413 -0.06404242 -0.05809971 0.012480407 0.005490404
-0.04532292 -0.06103709 0.02763484 -0.07124024 0.052746113 0.03855412 0.007165657 0.07147478
0.01842746 -0.059155166 -0.039137956 0.022822594 -0.06434642 0.05109115 -0.022445986 -0.08181248
-0.05826625 -0.02250174 -0.075905964 -0.059905842 -0.029957874 0.01744016 0.05300471 0.01727855
-0.022044772 0.021682378 -0.024120843 0.04618053 -0.00333514 -0.0031976325 0.037870582 0.021707563
-0.029781962 -0.06224965 -0.010221208 0.042423043 -0.0012871604 -0.0726867 0.035621066 0.015527892
-0.045754757 0.0007339727 -0.0874829 -0.023808409 0.025968535 -0.047401655 -0.11747466 -0.021167006
0.0113194175 0.02084434 -0.079622276 -0.035320826 -0.026130691 -0.013904087 -0.017243747 -0.016125226
0.03665213 0.008919966 -0.074795745 0.017370485 -0.03134367 -0.028834244 0.055042878 -0.07475339
0.010229203 0.028709777 -0.06851482 0.10058985 0.09282571 -0.052505165 -0.006824473 0.041424282
0.03848822 0.011893432 0.03546628 0.010466323 0.009325024 -0.0070149745 0.019123698 0.060532585
0.030695062 -0.05982801 -0.05244922 -0.021046797 0.032013875 0.026108433 0.096887134 0.055953577
0.035016663 0.07225011 0.023214592 0.00937368 0.007000345 0.049467023 0.017949563 0.036301054
-0.006831426 0.06929883 0.0072053373 -0.035127655 -0.07109326 -0.04141105 0.022455137 -0.014863364
-0.022450361 0.020769496 0.059124544 -0.046773322 0.028107967 0.004929104 0.017046263 0.013866001
0.005300383 -0.060426645 -0.13488701 0.013294814 0.05837766 -0.08813384 0.0057011507 0.036649473
-0.054072347 -0.04886533 0.031784542 -0.025760803 -0.06410805 0.024045557 -0.032087706 -0.035408717
-0.022084272 -0.02638125 0.06231851 -0.018950703 -0.13942136 0.051373463 -0.011783214 -0.03743817
-0.023555037 -0.0008615975 -0.06928741 -0.016707905 -0.009872294 0.024897853 0.02417055 -0.009606619
0.016673854 -0.017620059 -0.03688119 -0.0038241318 0.034107465 0.10049431 0.034485042 -0.06339759
00000000: 5f5d a23d cf1d c2bc f758 a53c af1c 0e3d
00000010: 5608 593d 970a 963d 62ae b63c 58af f93a
00000020: a814 3dbd 08b3 4b3d ecd0 90bd a9c6 a13b
00000030: 91d7 3cbc abeb adbc 7eb5 9cbc 70de dfbb
00000040: 5f9a 853b 158e a53c dbc4 1f3c 7d7c 11be
00000050: 6892 c2bd b9e0 5dbc 6a7f acbd e53d 23bd
00000060: 1889 9e3c b594 dabc a2e1 de3c 5a26 683d
00000070: c7cd 5abb 44af 8c3c ab18 11bd 85d8 abbc
00000080: ea2e f43b 4b63 183d edb3 5f3d 3ead 243d
00000090: 6d3f 9c3d ebe9 723d c550 1fbd 82b7 dc3d
000000a0: d599 033e f5c1 423d afb8 8c3c 0a32 963d
000000b0: 9481 9cbc 04e6 e63d 9401 1b3d fa4d 003c
000000c0: 0391 c43d a49a cd3d 03be 1ebd 671e 323d
000000d0: 3bd1 5fbd e3e1 d1bc 6f95 c13b 3da6 74bd
000000e0: 3daf cbbb e808 523d f877 9c3c 9c48 46bc
000000f0: e287 403d 4126 30bd d6e3 233d 4808 d13d
00000100: bc5b c93c 4c40 b1bd 44cc 043e 1b3b 10bd
00000110: 51ad 8bbd 0737 63bd 2a62 00be 82af 0a3c
00000120: 51e3 553c 527f 0fbd 245d 42bd 7134 393d
00000130: dfa3 743c c62f 6fbd a265 77bc 83d3 98bc
00000140: c8ce ebbc ba91 093d 07fd be3c f6b5 d43d
00000150: b41f 263d 6f06 713c 3842 643d eec8 ae3c
00000160: c3a6 a8bc 508d 0bbd 9d37 1cbd f2fe 873a
00000170: 80d8 a4bd f076 16bc 1f63 b1bc 0a85 3abd
00000180: d1ab f63c cdf6 c0bc 7099 3e3b d943 7abb
00000190: ac28 83bd f6f9 6dbd 9f7a 4c3c d9e8 b33b
000001a0: 87a4 39bd 0702 7abd 7662 e23c 67e6 91bd
000001b0: 4f0c 583d edea 1d3d e3cd ea3b 5f61 923d
000001c0: 2ff5 963c b04c 72bd 1f4f 20bd 73f6 ba3c
000001d0: 0ec8 83bd f444 513d a5e0 b7bc 4d8d a7bd
000001e0: 97a8 6ebd 9255 b8bc 9674 9bbd d45f 75bd
000001f0: 376a f5bc abde 8e3c 771b 593d bf8b 8d3c
00000200: 3d97 b4bc 3e9f b13c 1399 c5bc cc27 3d3d
00000210: 5d92 5abb 5f8f 51bb 2f1e 1b3d 0fd4 b13c
00000220: 4df9 f3bc 7df9 7ebd db76 27bc c9c3 2d3d
00000230: f0b5 a8ba c4dc 94bd 65e7 113d b368 7e3c
00000240: 5769 3bbd 1368 403a 3c2a b3bd da09 c3bc
00000250: f7bb d43c 3d28 42bd 8e96 f0bd 6e66 adbc
00000260: 1475 393c c0c1 aa3c 0111 a3bd 92ac 10bd
00000270: 0810 d6bc f8cd 63bc c242 8dbc 0d19 84bc
00000280: 8b20 163d 0d25 123c 832e 99bd 8c4c 8e3c
00000290: 3862 00bd cb35 ecbc a474 613d 4e18 99bd
000002a0: 6398 273c c430 eb3c 7f51 8cbd 0d02 ce3d
000002b0: 681b be3d a80f 57bd d49f dfbb 82ac 293d
000002c0: d3a5 1d3d abdc 423c 1745 113d f17a 2b3c
000002d0: fcc7 183c dfdd e5bb 4da9 9c3c 04f1 773d
000002e0: 3674 fb3c 370e 75bd fed4 56bd 556a acbc
000002f0: fb20 033d 5ae1 d53c c36c c63d 942f 653d
00000300: a26d 0f3d def7 933d 872c be3c 1094 193c
00000310: 2663 e53b ef9d 4a3d f60a 933c 6ab0 143d
00000320: 28da dfbb 8cec 8d3d c01a ec3b 04e2 0fbd
00000330: 5899 91bd a29e 29bd d6f3 b73c 7885 73bc
00000340: d2e9 b7bc ca24 aa3c 942c 723d 6295 3fbd
00000350: ae42 e63c 5284 a13b 9ba4 8b3c 392e 633c
00000360: d6ae ad3b ee81 77bd d21f 0abe 7ed2 593c
00000370: 6a1d 6f3d 847f b4bd b8d0 ba3b c21d 163d
00000380: f77a 5dbd 0327 48bd 8230 023d 5208 d3bc
00000390: 154b 83bd 30fb c43c 666e 03bd bb08 11bd
000003a0: 13ea b4bc 7e1d d8bc b241 7f3d 813e 9bbc
000003b0: 79c4 0ebe fb6c 523d 620e 41bc c458 19bd
000003c0: 7ef6 c0bc d4dc 61ba 8fe6 8dbd 04df 88bc
000003d0: 67bf 21bc 95f6 cb3c 5101 c63c 1565 1dbc
000003e0: 9b97 883c f157 90bc bb10 17bd 499e 7abb
000003f0: 45b4 0b3d f6cf cd3d 3040 0d3d 98d6 81bd

stack.2.2.bias f4 [32]
0.008149563 -0.013571863 -0.0031726414 -0.007486088 0.007397584 0.06266658 0.007417069 -0.016341543
0.0348294 -0.004629381 -0.0005577898 -0.04608068 -0.055512033 -0.02164279 -0.0034436735 0.020243231
-0.031104177 0.06457188 0.040313978 -0.025467437 0.0061932285 -0.025713665 0.009548477 0.054515675
-0.02402743 0.038206473 -0.009050356 -0.012858958 0.02356993 -0.009541352 -0.022309495 -0.006713182
00000000: bf85 053c 855c 5ebc 17ec 4fbb dc4d f5bb
00000010: 6f67 f23b 5657 803d e20a f33b b3de 85bc
00000020: 46a9 0e3d 10b2 97bb a438 12ba 18bf 3cbd
00000030: 9660 63bd 384c b1bc 41af 61bb 22d5 a53c
00000040: 30ce febc 433e 843d 4520 253d 16a1 d0bc
00000050: 91f0 ca3b 77a5 d2bc 3771 1c3c d44b 5f3d
00000060: 2cd5 c4bc 647e 1c3d f247 14bc 61ae 52bc
00000070: ba15 c13c 5553 1cbc 67c2 b6bc 41fa dbbb

stack.4.0.weight f4 [32]
1.0153865 1.078864 1.033371 1.0163825 1.0699792 1.0762964 1.0246643 1.1386802
1.1359897 1.064478 1.069151 1.0515745 1.0472636 1.105796 1.0971707 1.0313063
0.9904846 1.0307208 1.1121694 1.08036 1.0950564 1.129874 1.1028724 1.0531436
1.0507923 1.0183773 1.0980262 0.9673596 1.103039 1.0599935 1.0242205 1.0606278
00000000: 2ff8 813f 3718 8a3f 8045 843f d218 823f
00000010: 14f5 883f 15c4 893f 3328 833f 46c0 913f
00000020: 1c68 913f d140 883f f1d9 883f fe99 863f
00000030: bc0c 863f b98a 8d3f 1770 8c3f d801 843f
00000040: 6690 7d3f a9ee 833f 915b 8e3f 3d49 8a3f
00000050: cf2a 8c3f b69f 903f ec2a 8d3f 69cd 863f
00000060: 5d80 863f 305a 823f 1f8c 8c3f e1a4 773f
00000070: 6230 8d3f dead 873f a819 833f a7c2 873f

stack.4.0.bias f4 [32]
0.015210436 0.17384008 0.08305664 0.14342462 -0.06287469 0.20504923 0.04528788 0.031847883
0.042181 0.11715783 0.18476748 0.08259061 0.15929921 0.15965708 0.07421989 0.076750234
0.06356919 0.15276663 0.13829634 0.12212295 0.08222004 0.15363891 0.20151356 0.047854427
0.13585137 0.05556505 0.07723559 0.00802254 0.14794675 0.14755733 0.13906287 0.10356678
00000000: 3135 793c 2203 323e 9a19 aa3d e7dd 123e
00000010: 72c4 80bd 6df8 513e c97f 393d ed72 023d
00000020: fcc5 2c3d 72f0 ef3d b033 3d3e 4425 a93d
00000030: 551f 233e 257d 233e 9900 983d 3a2f 9d3d
00000040: 9030 823d db6e 1c3e 8e9d 0d3e 991b fa3d
00000050: fb62 a83d 8553 1d3e 9259 4e3e 0103 443d
00000060: 9f1c 0b3e 2e98 633d b12d 9e3d f970 033c
00000070: 5a7f 173e 4519 173e 7f66 0e3e d21a d43d

stack.4.0.running_mean f4 [32]
0.21396902 2.0391953 -0.060764287 1.1357713 0.65628034 1.149664 2.882389 0.28090572
0.40233362 0.48172668 -0.1906361 -0.5456422 0.6818267 1.4569769 1.1911733 0.4283226
0.41143483 2.0531359 1.01392 0.14872749 2.9765582 0.14422567 2.3941748 0.22234435
1.9750485 2.655638 0.7806249 0.66786134 1.7310077 0.6629765 2.0828354 1.8140949
00000000: b21a 5b3e 2d82 0240 f9e3 78bd f460 913f
00000010: fd01 283f 3128 933f 1079 3840 e0d2 8f3e
00000020: acfe cd3e e1a4 f63e 1c36 43be 35af 0bbf
00000030: 328c 2e3f 387e ba3f 5e78 983f 1a4d db3e
00000040: 96a7 d23e 9466 0340 21c8 813f 054c 183e
00000050: ee7f 3e40 e5af 133e 293a 1940 3dae 633e
00000060: 64ce fc3f f9f5 2940 09d7 473f f6f8 2a3f
00000070: a991 dd3f d4b8 293f 2d4d 0540 4334 e83f

stack.4.0.running_var f4 [32]
0.9011234 2.1312354 0.9238316 1.2217242 1.4601599 1.6724507 1.4230901 1.4729973
1.5699531 1.3726732 1.230596 2.2492218 2.0031059 1.6244779 1.5177228 1.8947189
0.69115573 1.8184431 1.9790031 1.9355301 1.243842 1.2019134 2.812406 1.9035857
1.6114168 2.1753936 1.8431045 0.86329454 1.1257862 1.0404478 1.3242632 2.1381166
00000000: 06b0 663f 2966 0840 3a80 6c3f 7561 9c3f
00000010: 85e6 ba3f dd12 d63f d127 b63f 2d8b bc3f
00000020: 39f4 c83f c1b3 af3f 2b84 9d3f 40f3 0f40
00000030: e332 0040 e4ee cf3f be44 c23f 2686 f23f
00000040: 95ef 303f bec2 e83f f94f fd3f 73bf f73f
00000050: 3736 9f3f 4cd8 993f 76fe 3340 b2a8 f33f
00000060: e842 ce3f a639 0b40 d9ea eb3f df00 5d3f
00000070: c319 903f 652d 853f 7581 a93f e7d6 0840

stack.4.2.weight f4 [32, 32, 3, 3]
-0.049840488 0.041163687 -0.018177146 -0.06235777 -0.09845868 -0.043751143 -0.082873575 -0.032654207
-0.038094055 0.048064545 0.045737997 0.16672789 0.06945301 0.06864879 0.16473313 -0.07569276
-0.03337301 0.06946649 -0.024482274 0.05923426 0.11701423 -0.018699422 0.030262804 -0.053204935
-0.038527012 -0.03742154 -0.06550589 0.04923836 -0.027615184 -0.1140497 0.00018675679 -0.0028883559
-0.0060107745 0.024116822 0.008684235 0.12633431 0.028999493 0.01448707 -0.015877234 -0.13322458
-0.019532967 0.043272756 -0.13661733 0.06094413 0.05790303 -0.04506099 0.035337366 -0.073608965
-0.0084297685 -0.002079124 -0.10347925 0.044781405 -0.007526347 0.010988384 -0.021551773 -0.04791275
-0.049515497 0.028673898 -0.05748137 -0.10729736 0.041240435 0.07338969 0.11108536 -0.016945167
0.006673411 -0.014869069 -0.006951607 0.028464248 -0.031162066 0.02251744 0.14886889 0.06248986
0.038331926 0.08591544 0.086867794 -0.055933286 -0.041377444 -0.13614106 0.1715263 0.14315423
7.678276e-05 -0.13396063 -0.04644668 0.042560358 -0.07001706 -0.015735758 0.19575316 -0.060087726
-0.0232326 0.03146987 0.0062927483 0.05611096 -0.09951121 0.03457925 -0.051696975 -0.123837754
0.12814438 0.10699999 0.06427122 -0.05799989 0.03790289 0.0656071 -0.059095785 -0.08482574
-0.061268475 0.028114641 -0.0047250143 -0.01956758 -0.038145043 -0.058984842 -0.020567922 0.077156685
0.0026321036 0.02544975 -0.028571168 -0.026920073 0.013178241 -0.029034445 -0.029563438 -0.08666854
-0.014043136 -0.10733089 -0.086042024 0.042296275 0.025002448 0.12368642 0.058304917 -0.033205166
-0.008352234 -0.022056786 0.0111971805 0.016038021 -0.06384199 0.014720303 -0.115746535 -0.09725789
-0.097695045 -0.02155671 0.006154362 -0.036424145 0.11018535 0.01356634 -0.008852845 0.043762345
-0.042061705 0.034112528 0.07910417 0.06511939 0.02810285 -0.0076794983 0.018911442 -0.019081067
-0.012159595 0.06544759 0.032219756 0.12024813 0.06592987 0.046919618 -0.008036936 -0.031200206
-0.014490905 -0.12832631 -0.049236 0.14701895 0.198625 -0.061803415 0.016174333 -0.027597822
0.003528235 -0.01820224 -0.02366808 -0.098962955 -0.06427102 -0.020133274 -0.08216599 -0.050765675
0.09199574 -0.17266709 -0.03532574 -0.076485254 -0.0030828787 0.01207608 -0.06520965 -0.047824293
-0.095064834 -0.087004736 0.020303044 -0.005895583 0.037460297 -0.043803528 -0.04677035 -0.1808335
-0.045196287 -0.060835317 -0.029560793 -0.009529774 0.098843284 0.11969911 0.097438715 -0.006349941
0.0018141884 -0.011271361 0.012903423 0.01668892 -0.01730149 -0.11085589 -0.07372248 -0.053393357
-0.028377209 0.11194231 -0.09284631 -0.073640876 0.083097555 0.01984916 0.07041625 0.014561882
0.14314103 -0.050541624 -0.019006833 0.023359988 -0.062498786 -0.026726417 -0.009544846 0.061203927
-0.03538344 0.06196622 -0.06364889 -0.024665868 -0.07533447 0.002507475 -0.018182894 -0.06856687
-0.09217896 -0.0371448 -0.0065593105 -0.04655369 -0.08939489 0.09278866 0.012758103 -0.046273954
0.08799053 -0.008446063 0.044918243 -0.07677224 -0.07999848 0.010034488 0.0021418214 0.04003804
-0.028066507 -0.069961846 -0.09990622 -0.12507188 0.05685487 0.12325788 -0.004023098 0.04558063
00000000: 8a25 4cbd 419b 283d 3de8 94bc dc6a 7fbd
00000010: b4a4 c9bd 6634 33bd 9fb9 a9bd 6bc0 05bd
00000020: 8308 1cbd 54df 443d c457 3b3d b7ba 2a3e
00000030: 613d 8e3d bd97 8c3d cdaf 283e ce04 9bbd
00000040: 23b2 08bd 7244 8e3d 0d8f c8bc a09f 723d
00000050: 28a5 ef3d 882f 99bc b3e9 f73c 6bed 59bd
00000060: 80ce 1dbd 5447 19bd f427 86bd 2aae 493d
00000070: 3d39 e2bc e492 e9bd 25d4 4339 924a 3dbb
00000080: 08f6 c4bb a490 c53c 5248 0e3c c85d 013e
00000090: 5890 ed3c 2d5b 6d3c f910 82bc 066c 08be
000000a0: 9a03 a0bc c63e 313d 6ae5 0bbe 8da0 793d
000000b0: ba2b 6d3d df91 38bd eabd 103d 4cc0 96bd
000000c0: 031d 0abc ea41 08bb eeec d3bd b56c 373d
000000d0: 939f f6bb 9f08 343c 588d b0bc 2940 44bd
000000e0: c3d0 4abd 86e5 ea3c 9671 6bbd b8be dbbd
000000f0: bbeb 283d 554d 963d b980 e33d 97d0 8abc
00000100: a1ac da3b 659d 73bc 4eca e3bb db2d e93c
00000110: 9747 ffbc 7f76 b83c 1671 183e 5ef5 7f3d
00000120: f001 1d3d 6ff4 af3d bee7 b13d 4d1a 65bd
00000130: 657b 29bd 9068 0bbe 97a4 2f3e 0697 123e
00000140: 6e06 a138 fa2c 09be e03e 3ebd c553 2e3d
00000150: 1b65 8fbd 47e8 80bc 8473 483e 8c1e 76bd
00000160: 4b52 bebc 8de6 003d 6633 ce3b 9bd4 653d
00000170: 89cc cbbd f9a2 0d3d 35c0 53bd a69e fdbd
00000180: 4838 033e d022 db3d a1a0 833d 4b91 6dbd
00000190: 1040 1b3d 045d 863d 6c0e 72bd 1eb9 adbd
000001a0: a7f4 7abd ad50 e63c 4bd4 9abb 314c a0bc
000001b0: fa3d 1cbd 179a 71bd 0f7e a8bc 5304 9e3d
000001c0: 5f7f 2c3b fe7b d03c 150e eabc 7c87 dcbc
000001d0: 8de9 573c a5d9 edbc 062f f2bc 477f b1bd
000001e0: 2e15 66bc 4cd0 dbbd cd36 b0bd dc3e 2d3d
000001f0: efd1 cc3c 4e4f fd3d 23d1 6e3d 2402 08bd
00000200: cfd7 08bc 6fb0 b4bc 6174 373c 2b62 833c
00000210: 97bf 82bd 6d2d 713c 850c edbd 252f c7bd
00000220: 5714 c8bd b397 b0bc 88aa c93b 7c31 15bd
00000230: dba8 e13d 5b45 5e3c 860b 11bc 2540 333d
00000240: e548 2cbd 94b9 0b3d 5e01 a23d 515d 853d
00000250: f337 e63c 4da4 fbbb 2bec 9a3c e64f 9cbc
00000260: 0a39 47bc 6309 863d ddf8 033d a744 f63d
00000270: 3d06 873d c92e 403d 5aad 03bc 9397 ffbc
00000280: 436b 6dbc f967 03be b0ab 49bd 238c 163e
00000290: 5a64 4b3e 9425 7dbd 0980 843c d414 e2bc
000002a0: f639 673b dd1c 95bc 90e3 c1bc 17ad cabd
000002b0: 86a0 83bd 89ee a4bc a446 a8bd abef 4fbd
000002c0: 4368 bc3d a4cf 30be b9b1 10bd 4da4 9cbd
000002d0: 1f0a 4abb c0da 453c a38c 85bd 68e3 43bd
000002e0: 5ab1 c2bd 8a2f b2bd 9252 a63c bc2f c1bb
000002f0: f86f 193d 546b 33bd 4492 3fbd 6b2c 39be
00000300: be1f 39bd 742e 79bd 7a29 f2bc c522 1cbc
00000310: 596e ca3d cf24 f53d f38d c73d 2a13 d0bb
00000320: 10ca ed3a 84ab 38bc e168 533c 34b7 883c
00000330: dbbb 8dbc 6a08 e3bd d0fb 96bd feb2 5abd
00000340: 5277 e8bc 0342 e53d 3526 bebd 07d1 96bd
00000350: 0d2f aa3d b59a a23c 6536 903d f694 6e3c
00000360: 9093 123e bc04 4fbd 38b4 9bbc 725d bf3c
00000370: bafe 7fbd 5cf1 dabc fc61 1cbc f8b0 7a3d
00000380: 3aee 10bd 4bd0 7d3d 595a 82bd 1310 cabc
00000390: f548 9abd 7354 243b 4bf4 94bc ca6c 8cbd
000003a0: 53c8 bcbd 2525 18bd 7cef d6bb 15af 3ebd
000003b0: ab14 b7bd fb07 be3d 5d07 513c c289 3dbd
000003c0: 6134 b43d 5b61 0abc 31fc 373d c43a 9dbd
000003d0: 3ed6 a3bd b167 243c cd5d 0c3b eefe 233d
000003e0: bbeb e5bc 2848 8fbd a29b ccbd d812 00be
000003f0: a7e0 683d a16e fc3d 31d4 83bb c1b2 3a3d

stack.4.2.bias f4 [32]
-0.055755835 0.02764732 0.043455217 -0.057482883 0.013616719 0.045094796 0.031990714 0.03059207
-0.03629132 -0.015131208 0.027995996 0.032997224 -0.011120604 -0.041958407 -0.034669567 0.04355158
-0.039447382 -0.044300403 0.0036658763 0.029206052 0.01963409 0.010293752 0.05073504 0.0534407
0.014749066 0.02338548 0.037582852 -0.0055779032 0.055210143 0.056652665 0.006792941 -0.041057304
00000000: 3b60 64bd a27c e23c 19fe 313d 2c73 6bbd
00000010: a918 5f3c 52b5 383d b208 033d 399c fa3c
00000020: 35a6 14bd e3e8 77bc dc57 e53c 1928 073d
00000030: 3233 36bc 94dc 2bbd ad01 0ebd 2463 323d
00000040: 9493 21bd 5774 35bd 333f 703b 8841 ef3c
00000050: acd7 a03c 20a7 283c 8ccf 4f3d a3e4 5a3d
00000060: 11a6 713c e892 bf3c 7af0 193d d8c6 b6bb
00000070: 0824 623d a00c 683d 5297 de3b b42b 28bd
