lab4/params.pt (torch, 82127 bytes, 14 tensors)

stack.0.2.weight f4 [32, 1, 3, 3]
000000 7f 35 d4 3d 23 e5 97 3e f8 d6 ad 3e fb c0 ee 3d
       0.10361766 0.29667005 0.3395307 0.11657902
000010 c7 70 58 be bb 1a 68 be 8a 71 87 be fd 6d 42 3e
       -0.21136771 -0.22666447 -0.2645381 0.1898727
000020 0b 12 a4 be 3c f7 bd bd d7 94 a3 3d 5b d1 b3 bb
       -0.32045016 -0.09275672 0.07987373 -0.0054876036
000030 0b 32 56 3e 71 2f 73 3e cf 94 a5 3e b5 62 8e 3e
       0.20917527 0.23748566 0.32340094 0.27809682
000040 a3 54 bf bd d5 d8 13 be d4 44 87 3d e2 ca 1d be
       -0.09342315 -0.14438184 0.06604925 -0.15409425
000050 9f a5 a1 bc 06 de 1c 3d 5a be 85 3e 00 cd a2 3c
       -0.019732295 0.038297676 0.2612179 0.019873142
000060 da 14 02 3e 50 4e b6 be 2f 89 5d 3e 4d ed d5 be
       0.12703267 -0.35606623 0.21634363 -0.4178261
000070 16 d9 63 bd 93 89 73 3e 43 c6 e2 bd e7 45 12 be
       -0.05562695 0.23782949 -0.11072972 -0.14284478
000080 07 53 24 bd 3f f6 31 3e 13 ca 99 be 3b f9 83 3e
       -0.040118244 0.17379092 -0.30036983 0.25776085
000090 82 85 84 3e fa ba 43 be 25 71 79 3c 0e 47 cc 3c
       0.25883108 -0.19114295 0.01522473 0.024936225
0000a0 ea 25 58 3c 8a ec 6a bc a8 17 a6 bc fe b8 b0 bb
       0.013192633 -0.014338622 -0.020274952 -0.0053931465
0000b0 fc 46 b1 3e 1c 57 b8 3e 78 8d f5 bd 27 15 00 3e
       0.3462447 0.3600396 -0.11989874 0.12508069
0000c0 65 e2 15 bd d3 b0 b9 3e 4f fa 57 be 89 9b a0 be
       -0.03659286 0.3626772 -0.21091579 -0.31368664
0000d0 3a 87 80 3d f5 be c2 3e 54 ea 5b bb 88 db af 3d
       0.062757924 0.38036314 -0.0033556418 0.08586794
0000e0 f5 fd 3d 3e 95 66 b3 bd 93 3d 65 3e 41 8a 0f 3e
       0.18553908 -0.087598 0.2238677 0.14017583
0000f0 bd 87 9f be 46 bf 88 be 59 e6 28 3e 15 34 e3 bd
       -0.31158248 -0.2670843 0.1649412 -0.11093918
000100 c1 89 80 3e e0 f2 92 3e 5b 6c 25 bd e1 aa 83 3d
       0.25105098 0.28700924 -0.04038654 0.06429077
000110 74 6d 06 3e c8 6f 56 be d0 5b 9d 3e 9b 7d 1e bd
       0.1312769 -0.20941079 0.3073411 -0.038694005
000120 42 06 2d bc fc 17 ce bc a0 87 0a be fb e0 3b 3d
       -0.010560574 -0.025157921 -0.135283 0.045868855
000130 d1 ed 9c be db 05 ad 3e 56 84 1a be 07 b2 87 3e
       -0.3065019 0.3379353 -0.15089545 0.26503012
000140 cd 21 39 bd 56 3c 29 3e 05 8a bc 3c d1 7d a6 be
       -0.04519825 0.16526923 0.023015032 -0.32517865
000150 f5 c5 2c 3e f5 b5 56 3e e0 10 40 be e4 5a 5a 3e
       0.1687239 0.20967849 -0.18756437 0.21323735
000160 e3 74 00 be 84 6c 8e be 95 54 97 be 35 8e 96 3e
       -0.12544589 -0.27817166 -0.29556718 0.2940537
000170 bb 15 a0 be 23 67 9b 3c 48 31 9d 3e fa 2e 8e 3e
       -0.3126658 0.018970078 0.3070166 0.27770215
000180 e0 65 7c 3e 89 3e b4 be 9e a2 dd 3c 9d e7 17 be
       0.24648237 -0.3520396 0.027055081 -0.14834447
000190 30 8a 46 3d 24 f0 08 be 5d 58 a1 be 62 8c e5 3d
       0.04847163 -0.13372856 -0.31512728 0.112084165
0001a0 3e 89 a7 3e d2 37 d9 bd 87 ea fd bd 04 c9 43 3e
       0.32721895 -0.1060635 -0.12398248 0.1911965
0001b0 b8 91 01 be 98 91 26 be 17 38 30 bb e6 a6 53 3e
       -0.12653244 -0.16266477 -0.00268889 0.20669135
0001c0 d0 64 a9 bd 18 5f bf bd 48 6b d1 3d e8 58 4e 3e
       -0.082711816 -0.093443096 0.102255404 0.20151103
0001d0 8f 1a a8 be 7a ba d9 bd 6f 23 b0 3d 6e f4 74 3e
       -0.32832763 -0.10631271 0.086005084 0.23921368
0001e0 c1 99 55 bd 4a a5 22 be f6 c2 d1 bd 7e 17 cb bc
       -0.052148584 -0.15883365 -0.10242264 -0.024791475
0001f0 0d 4c 49 be 1b cc 22 be 56 85 14 bd cb 40 89 be
       -0.19657917 -0.15898173 -0.03625997 -0.26807246
000200 b6 53 8b bd fd c0 65 3e ba 2a ff bc af 0e 3b be
       -0.06803076 0.224369 -0.031148303 -0.1826732
000210 9e ce f5 3d d4 96 4f 3e 76 a8 79 3e 4b 3d 8b be
       0.120023 0.2027238 0.24380669 -0.271952
000220 26 48 f0 3d 96 95 90 3e 3d cb 83 3e d3 d0 4a 3e
       0.11732511 0.28239125 0.25740996 0.19806223
000230 1f c8 cb 3d a9 66 84 3e 0d 67 a4 bc b1 1c fe bd
       0.099502794 0.25859573 -0.02006867 -0.12407816
000240 40 29 8c be 16 57 2b 3e e5 68 3a 3d 16 25 b8 3e
       -0.2737522 0.1673244 0.04551019 0.35965794
000250 85 1b 25 3d 60 d4 45 3e 7e 55 8f be a3 42 8c bd
       0.040309448 0.19319296 -0.27994913 -0.068486474
000260 86 b1 65 be 64 dc d2 3d 8d c0 76 bd 93 2e a9 3e
       -0.22431001 0.102959424 -0.060242224 0.33043346
000270 b8 d5 4d be 89 86 73 3e b1 34 8e bd b8 eb 9b be
       -0.20101058 0.2378179 -0.06943644 -0.30453277
000280 8b 3a bf be b2 57 32 bd 10 c1 61 3e 6a 97 9f 3d
       -0.37349352 -0.043540664 0.22046304 0.07792552
000290 69 c0 05 be 92 61 c1 be a4 21 4e 3e 34 c5 5d 3d
       -0.1306168 -0.37769753 0.2013002 0.054143146
0002a0 27 43 27 3e 6d 54 98 3e 4c c6 9a bc 86 3f 1c be
       0.1633421 0.29751912 -0.018893383 -0.15258607
0002b0 a9 2b b4 3e 27 99 30 3b 2f a2 65 be 15 84 2c 3e
       0.3518956 0.0026946755 -0.2242515 0.1684726
0002c0 cb c3 4e be b2 88 61 3e e9 45 95 3c 39 9b fc bd
       -0.20191877 0.22024801 0.018221812 -0.12334294
0002d0 ad e7 9a 3e fd ee a6 3d 09 fd 8c 3e 2d dd 2a 3d
       0.3025488 0.08151052 0.275368 0.041714836
0002e0 15 e8 f6 bd 71 cf da bd 70 db 77 be db ff f3 3c
       -0.12055985 -0.106840976 -0.24204803 0.029785087
0002f0 df 06 67 3e 94 8f d0 bd 6a ca a4 bd e5 5f 60 3e
       0.22561215 -0.10183635 -0.0804642 0.21911581
000300 a1 4b 73 be 97 df 71 bc a6 cf 7b be ad f9 45 be
       -0.23759319 -0.014762781 -0.2459093 -0.19333525
000310 32 e0 82 be 4f c0 8b bd cf a8 2c 3e 02 69 2d 3e
       -0.25561672 -0.06823789 0.1686127 0.16934589
000320 01 e7 7e 3e 93 d0 cb be 47 f0 5f 3d eb 04 c5 bd
       0.24892808 -0.39807567 0.054672506 -0.09620079
000330 96 30 b8 bd 8d a3 65 3e 90 f7 88 3e c0 3a 20 3a
       -0.08993642 0.22425671 0.26751375 0.000611227
000340 6c 61 66 3e 77 41 72 be a7 76 bc be 07 02 82 3c
       0.22498101 -0.23657785 -0.36809275 0.015870107
000350 b4 9c 5e be e9 b8 14 3d 78 a3 96 3e 6d fd 27 3e
       -0.21739465 0.036309157 0.29421592 0.16405268
000360 f0 a7 d0 bc 98 a0 0b be 93 ae 2a be a2 f0 15 be
       -0.025470704 -0.1363548 -0.16668157 -0.14642575
000370 f1 4d 33 bd a7 e1 34 bc 85 9c 07 be 1c 1e 6c bd
       -0.043775503 -0.011040128 -0.13243301 -0.057645902
000380 47 27 74 3e f0 62 67 be 70 f7 9e bd f6 eb 83 3e
       0.23843108 -0.22596335 -0.07762039 0.2576596
000390 57 6b 97 bd 75 9e fc 3d 80 0a ad 3e 29 f2 02 be
       -0.0739352 0.12334911 0.33797073 -0.1278769
0003a0 f4 cc 37 bd 25 81 37 3e 5c c6 9b bd 93 a4 c0 bc
       -0.044873193 0.17920358 -0.076061934 -0.023515975
0003b0 47 58 b9 be f6 07 36 3e 5c 07 19 3e d3 a0 96 be
       -0.36200163 0.17776474 0.14944214 -0.29419574
0003c0 01 6c c2 3d 4a 8c 45 3e ae 79 bd 3e 8c c3 8d be
       0.09493256 0.19291797 0.37006897 -0.27688253
0003d0 72 92 80 be 68 50 48 3e 26 94 1e bd 49 2c db bd
       -0.2511173 0.19561923 -0.038715504 -0.10701806
0003e0 87 55 29 be 1f 1d 81 be 48 29 a7 3c 3f 0e 0e be
       -0.16536532 -0.2521753 0.020405427 -0.13872622
0003f0 46 92 80 be 4c dd 94 be be e8 20 bd d1 4a 36 3e
       -0.25111598 -0.29075086 -0.03928446 0.17801978

stack.0.2.bias f4 [32]
000000 a3 ba 5f bb 9a 7e 3d 3e 93 b3 24 3e eb f0 0d 3d
       -0.0034138344 0.18505326 0.16084127 0.034653585
000010 ca d3 91 bd 5a 19 bc bd d9 01 eb bb f4 b4 9c 3d
       -0.07120474 -0.09184523 -0.007171851 0.076517016
000020 10 8f 15 3e d7 47 90 3d 4c 81 c6 bd d7 d5 79 ba
       0.14605355 0.07044952 -0.0969263 -0.0009530461
000030 c3 3e 14 be 63 46 f7 bd ac 5c 09 3e 11 94 2e 3e
       -0.14477067 -0.12073972 0.13414258 0.1704867
000040 b1 f3 41 be e2 98 1a 3e d4 89 be 3d 26 5c 98 3e
       -0.18940617 0.15097383 0.093036324 0.29757804
000050 7d 38 11 3e 1f 56 c5 3d f7 94 2b 3e 30 cf 24 3d
       0.14181705 0.09635567 0.16756044 0.040236652
000060 bf 3f 73 3e fc d2 88 be 85 2f 5e 3e 02 72 48 3e
       0.23754786 -0.26723468 0.21697815 0.1957474
000070 bd fa 9d bd fd be cd bd b5 97 88 3e fe cc 68 bd
       -0.0771384 -0.10046194 0.26678243 -0.05683612

stack.2.0.weight f4 [32]
000000 90 cc 85 3f ae e4 5e 3f a1 5d 75 3f d5 ed 77 3f
       1.0453053 0.8706769 0.9584599 0.9684728
000010 d5 1e 7f 3f d0 f2 6e 3f 12 fc 70 3f 79 3e 60 3f
       0.9965642 0.9333925 0.9413463 0.87595326
000020 9e 69 86 3f c5 a5 86 3f 27 a3 65 3f dc 35 8c 3f
       1.0500982 1.0519339 0.89702076 1.0953937
000030 5d 49 85 3f 1a 51 8b 3f e8 33 8c 3f 58 29 55 3f
       1.0413014 1.0884125 1.095334 0.8326621
000040 a1 8b 77 3f db e7 85 3f 02 5d 6d 3f 61 76 81 3f
       0.9669743 1.0461382 0.92720044 1.0114251
000050 66 3e 5c 3f 1b 3d 88 3f 71 48 72 3f d7 56 6f 3f
       0.8603271 1.0643648 0.94641787 0.9349188
000060 ea ba 9b 3f a9 36 69 3f b9 08 8b 3f 77 0f 7b 3f
       1.2166417 0.9109903 1.0862037 0.9807047
000070 81 6b 80 3f da 44 7f 3f e3 32 7c 3f 59 f7 63 3f
       1.0032808 0.99714434 0.98515147 0.890493

stack.2.0.bias f4 [32]
000000 89 42 38 3d 5d a6 d1 bd d1 ec ad bd e8 25 8c bd
       0.044985328 -0.102368094 -0.08492435 -0.068431675
000010 71 d8 c0 3b 5b 28 1a bd f6 b5 c0 bd 61 b5 40 be
       0.005885177 -0.037636142 -0.09409706 -0.1881919
000020 33 da 14 3d 32 a4 19 bd 2f 8c 2b bc 96 19 61 3e
       0.036340903 -0.037510104 -0.010470434 0.21982417
000030 ab 68 13 3e 01 21 01 3d d3 06 bb 3d 41 2b e0 bd
       0.14395396 0.031525616 0.09132161 -0.1094575
000040 5a cb 44 bc 94 02 de bc 68 cb 05 3d 87 7a b0 3c
       -0.012011373 -0.027100839 0.032664686 0.0215428
000050 c4 e9 98 bd 0a c5 41 3d 2e 86 4a bd 71 4b 99 3d
       -0.07466462 0.04730705 -0.04944437 0.074850924
000060 a9 78 e0 3d 0a 38 7a 3c e1 4f 9d 3d 94 f9 6b bc
       0.10960514 0.01527215 0.07681251 -0.014402766
000070 d9 99 0f bd 61 cf 9b bd 7d 97 62 bd 43 35 40 3d
       -0.03505883 -0.07607914 -0.05532025 0.046925794

stack.2.0.running_mean f4 [32]
000000 a4 36 7e 3e de f7 3d 3f b6 3a b2 3e b6 ca f6 3d
       0.24825531 0.7420634 0.34810418 0.12050383
000010 7d 03 70 3e b9 6f b3 3e c2 7f 7f 3e 1a 68 0e 3f
       0.2343883 0.35046175 0.2495108 0.55627596
000020 6f 8b 88 3e a7 13 91 3e 7f d0 2d 3e 6e 3d 2a 3e
       0.2666888 0.28335306 0.16974066 0.16624996
000030 27 51 bd bd bc cf 02 be 4f 15 d0 3e 70 0e 41 3f
       -0.09243994 -0.12774557 0.40641257 0.75412655
000040 98 80 2b bd b6 18 76 3e 0e 1b e9 3e 1b b0 f3 3e
       -0.041870683 0.24032864 0.45528454 0.47595295
000050 49 82 02 3f 59 53 b7 bb ee 59 1a 3f 88 ad 3d 3e
       0.5098005 -0.0055946526 0.6029347 0.18523228
000060 86 19 7f 3e e4 16 01 3e 1e cb 0d 3f 12 b0 8e 3d
       0.2491208 0.12606388 0.5538806 0.069671765
000070 82 1c 56 3e 93 c8 3d 3e cc 6f 89 3e 65 1f 75 3e
       0.20909312 0.18533544 0.26843107 0.23937757

stack.2.0.running_var f4 [32]
000000 f1 b2 20 3e d3 44 e1 3e a0 87 32 3d 3e b0 46 3d
       0.1569326 0.4399782 0.043586373 0.04850792
000010 cf 6b de 3d d9 f6 80 3e 1b 06 14 3e 7f a9 b6 3e
       0.108604066 0.2518833 0.14455454 0.3567619
000020 85 17 26 3d fe 87 16 3e bb 13 e8 3d c9 f9 ad 3d
       0.040549774 0.14700314 0.11331888 0.08494908
000030 6d 28 02 3d 51 6b 05 3d 8e 0f 11 3e 14 e7 fa 3e
       0.031776834 0.032573048 0.1416609 0.49004424
000040 93 d7 73 3d aa b4 87 3d 96 fb 36 3e f0 75 74 3d
       0.05953176 0.06626256 0.1786941 0.059682786
000050 14 1e 38 3e 76 78 a1 3d 44 49 88 3e ed 30 60 3d
       0.17980224 0.07884304 0.26618397 0.05473416
000060 e7 db 08 3d 53 f8 8e 3e 67 91 59 3e e9 f1 ad 3d
       0.03341284 0.2792383 0.21246873 0.08493406
000070 f9 05 1f 3e 95 5b f1 3d ed 0c cc 3c 19 82 05 3e
       0.15529622 0.11785046 0.024908507 0.1303791

stack.2.2.weight f4 [32, 32, 3, 3]
000000 58 da be bd 90 b4 89 bc 82 15 ff 3d a6 88 3a 3d
       -0.093189895 -0.016809732 0.12455274 0.045540474
000010 6c 8b a4 3c 65 a6 49 3d 36 f5 c0 bd af bf cb bd
       0.020086013 0.04923095 -0.0942177 -0.0994867
000020 a1 58 c9 bb 80 29 47 bd 1c c1 90 3b b1 45 d8 3d
       -0.0061445986 -0.04862356 0.0044175517 0.105601676
000030 08 2b 9a ba a1 ae 23 bd 2c 3e 48 3c d0 59 0d bb
       -0.0011762092 -0.03996146 0.012221854 -0.0021568425
000040 34 ed 8c b9 90 f2 db bc 36 78 8f bc 09 0f 36 3d
       -0.0002687961 -0.026849061 -0.017513376 0.044447932
000050 f6 b9 06 3e df 45 c9 3c 84 04 d2 bb 68 b1 a6 bd
       0.13156876 0.02456945 -0.0064092297 -0.08139306
000060 09 b9 6d bd 2f df e3 3d 5f 9e 47 3c 15 c1 a1 3d
       -0.05803779 0.11126553 0.012183755 0.078981556
000070 76 c5 0a 3d 58 ff 83 bd a7 5d cd 3b 90 a5 22 bd
       0.03387972 -0.06445187 0.0062672677 -0.039708674
000080 9c 94 71 bd 47 93 4e ba 8b 74 fa 3c 80 2b 3a 3c
       -0.058979616 -0.00078802224 0.03057315 0.01136291
000090 04 fa e3 bb 5c 3b f4 3c 1e 04 7f bd b7 2b ba 3c
       -0.0069572944 0.029813461 -0.062259786 0.022725923
0000a0 6d ef 3c bd b9 87 3a 3c 0c 6d fa 3b d7 22 c8 3d
       -0.04612677 0.011384898 0.007642394 0.0977227
0000b0 fd 73 42 3d eb e4 23 3d 04 0b 40 3d b8 34 bc 3b
       0.047473896 0.040013235 0.046885505 0.0057435893
0000c0 a2 04 b0 3d a5 b3 9b 3d 49 b7 b6 bb be cb 00 3d
       0.08594634 0.07602624 -0.0055760485 0.031444304
0000d0 0e 04 d7 3d 77 6f 8c 3d 35 e8 a9 3d 5e 4b 87 bc
       0.1049882 0.06857198 0.08296243 -0.01651543
0000e0 9a 4d 5c 3c b8 44 3a bd bb 92 16 bc cd 52 07 bc
       0.013446236 -0.04547569 -0.009190257 -0.008259487
0000f0 8f 63 ec bc 39 c8 18 3c 1c fb 8e 3d 1b aa 93 bd
       -0.028856067 0.009325081 0.06981489 -0.072101794
000100 9c 50 7b 3c 4f c9 30 3d 68 d3 33 bc 41 d5 8d bd
       0.015339043 0.043160733 -0.010975696 -0.069254406
000110 ed e8 90 bd 45 86 12 bd 0d 84 1a bd 9b 68 28 bd
       -0.07075677 -0.03577258 -0.03772359 -0.041115385
000120 df 21 9c bc 53 36 62 3d 18 37 17 bc b0 29 00 bd
       -0.01905912 0.05522759 -0.009229444 -0.031289756
000130 60 8f 0e bd 80 48 36 bd 2e 6f 91 bc b4 91 aa bc
       -0.0348047 -0.044502735 -0.01775321 -0.02082143
000140 20 54 10 bc e8 0d 6b bd d6 2c b3 3c 01 83 ce bc
       -0.008809119 -0.05738631 0.021871965 -0.025208952
000150 c3 87 8c bd 4a 74 5f bc ff 7e f1 3c 34 f5 94 bd
       -0.06861832 -0.013638565 0.029479502 -0.07273331
000160 d9 1a 4d bd 3f 04 2a 3d a2 3c d1 bb 2b 6c 88 3d
       -0.050074432 0.041507956 -0.006385402 0.066612564
000170 45 eb be 3d 52 a4 45 3d 7f 5f 5f ba a3 59 16 bb
       0.09322218 0.04825241 -0.0008521005 -0.0022941611
000180 cc 9b 31 bd 0f a3 84 3d a3 6b 3e bb 17 c3 6b 3a
       -0.04336147 0.064764135 -0.0029055856 0.0008993609
000190 28 7d 62 bc c1 5a 2a 3d 81 3e 60 3b dd 7a 98 3c
       -0.013823785 0.041590456 0.0034216943 0.018613273
0001a0 d8 40 7f bd fa db 7c bd 8f 7a 44 bd ef 3f ee 3c
       -0.0623177 -0.061733223 -0.047968443 0.02908322
0001b0 28 fa 84 bd 95 9f 79 bd 47 30 ba bd a4 c1 2a bc
       -0.06493026 -0.060943205 -0.090912394 -0.010422144
0001c0 10 53 10 3d 22 f1 cc 3d ee 66 97 3c 40 58 90 bc
       0.035235465 0.1000693 0.018481698 -0.017620206
0001d0 9a 58 b3 3d f0 2b de 3b 74 ee 42 bd 97 ac f6 3d
       0.08757134 0.00678014 -0.047590688 0.12044638
0001e0 82 0a a1 bd d2 e6 81 bc 9d 07 9c 3d c5 83 75 bd
       -0.07863332 -0.015857134 0.076186396 -0.05994012
0001f0 0c fc fa 3c 67 2d 9d 3d 47 90 a0 bc 34 af 03 39
       0.030637763 0.076746754 -0.019600047 0.00012558402
000200 ab 1d d0 bc b9 a8 f2 bc ed db b4 bd fe 48 d7 3c
       -0.025404772 -0.029621469 -0.0883101 0.026279923
000210 91 f3 2d bd 06 3e 0e 3d b0 ee 12 3e 23 23 16 bc
       -0.04246861 0.03472712 0.14348865 -0.009163651
000220 c8 94 7f 3d 55 92 52 3c 1f 0f c2 bc 3c b7 90 3d
       0.06239775 0.012852271 -0.02368885 0.07066199
000230 78 52 83 bd 57 57 53 3d 40 c4 a1 bb 89 ea 09 bc
       -0.06412214 0.051596966 -0.004936725 -0.008417734
000240 37 00 b1 bc 40 2b 82 3c 90 b7 da 3d e9 62 24 bd
       -0.021606548 0.015889764 0.10679543 -0.04013339
000250 0e 30 1e bd e8 6f 37 3b b4 73 83 3d c5 24 3b 3d
       -0.038620047 0.0027990285 0.06418553 0.045689363
000260 93 e3 1d bc c5 97 46 bd ce a9 8d bd 76 81 25 3d
       -0.009636777 -0.048484582 -0.06917153 0.040406667
000270 d2 e3 c7 bd 2e 21 5c bd 37 3e 0d bd 2e 47 d6 bb
       -0.0976025 -0.05374258 -0.03448316 -0.006539247
000280 27 94 5c bd 78 8a 1e bd 22 e9 9b 3b 3b 60 3d 3d
       -0.053852227 -0.038706273 0.004758016 0.04623435
000290 71 16 1b bd 81 43 17 bc 5a cb c6 3d 94 11 0a 3c
       -0.0378632 -0.009232403 0.09706755 0.0084270425
0002a0 c4 2d 4f 3d cd 37 1b 3d 09 df f9 3b 43 28 c4 bc
       0.050580755 0.037895013 0.007625465 -0.02394498
0002b0 10 b8 83 3c ee 0c 3e 3d 5f c5 df bc c6 34 81 3d
       0.016078979 0.04639905 -0.027315794 0.06308894
0002c0 d0 cc 9e 3d ca 7c 7e b9 69 59 57 3c 84 bb 8e bc
       0.07753909 -0.00024269815 0.013143876 -0.017423399
0002d0 ab 4f c9 3c 07 a0 94 bd 28 08 48 bb a6 f5 93 3d
       0.024574121 -0.07257085 -0.003052244 0.07224588
0002e0 ca 3c 18 bc d9 2a 38 bb 93 da a0 b9 b7 7c b8 bc
       -0.009291837 -0.002810171 -0.0003068043 -0.022520406
0002f0 58 ff 1f 3d a7 f5 02 3d a8 6f 04 be c8 fb 1b bd
       0.039061874 0.031972554 -0.12933218 -0.038081914
000300 27 63 e8 bc fa 2e a2 bd 52 2e 35 bd 72 ec a9 bd
       -0.028367592 -0.07919116 -0.044233628 -0.082970515
000310 35 e9 e1 bc e0 21 81 bc d6 b6 46 3d af e7 d0 3d
       -0.027577022 -0.015763223 0.04851421 0.1020044
000320 ec 17 77 3d be 42 00 3d d7 a6 bc 3d 4f c0 12 3d
       0.060325548 0.03131365 0.0921151 0.03582793
000330 63 93 70 bb f7 fa 22 3d f9 35 16 3d cc 95 e5 bb
       -0.0036708943 0.03979012 0.036672566 -0.0070063826
000340 f5 bd 4e bd d0 b7 dc bb fc 5b 9c bc 29 7b 03 3d
       -0.050474126 -0.0067357793 -0.01908683 0.032099877
000350 1e 9e f1 bc a3 4f 98 3c f6 54 9f 3d 96 ed 55 3c
       -0.029494341 0.018592661 0.07779877 0.013057133
000360 10 1b b4 3d 66 9d 90 3d cb 50 41 3d 8e a6 26 3d
       0.08794224 0.07061271 0.04719619 0.040686183
000370 59 f6 ec 3a 99 9b 0e bd b3 61 c7 3b d3 2a f6 bd
       0.0018078788 -0.03481636 0.0060846447 -0.12019887
000380 fc 52 d0 bd 9a 81 aa 3c 2d 54 c8 38 a2 49 c8 3c
       -0.10172078 0.020813752 9.552422e-05 0.024449173
000390 1d 1d 41 3c 17 14 60 bd 8d a0 46 bd e0 99 96 3c
       0.011786726 -0.05470666 -0.048492957 0.01838392
0003a0 6c 6a 36 3a 56 6d af bd 9e fe 32 3c e4 df b9 3c
       0.0006958607 -0.08565776 0.010924963 0.022689767
0003b0 86 5a 5e 3d f6 cd ac bd b4 70 46 bd 75 a6 98 3d
       0.05428555 -0.084377214 -0.048447326 0.07453624
0003c0 28 60 1a bd 60 3a 88 3d 43 e9 c2 3d 65 d6 88 3c
       -0.037689358 0.06651759 0.095171474 0.016703794
0003d0 ec c8 be 3c c1 28 af bd 96 3a 94 bb 4c 03 b5 bc
       0.023289166 -0.08552695 -0.0045235856 -0.022096299
0003e0 18 06 b4 bd 64 f3 3e bc 30 ee 5a 3d 34 ef 72 bd
       -0.08790225 -0.011654709 0.05344981 -0.059310153
0003f0 7a ed 84 3d fc a2 c8 3d 36 a6 fd bc fc 1f 2d bd
       0.064906076 0.09796712 -0.030963045 -0.04226683

stack.2.2.bias f4 [32]
000000 a7 c9 e0 bb 86 2f 34 bd 74 d5 d4 3b 00 9b 3f 3d
       -0.0068599763 -0.043990634 0.006495172 0.04677868
000010 c8 1d 22 3d f3 7e d4 bc 4d 57 9e bc 36 e5 4b 3d
       0.039579183 -0.02593944 -0.019328738 0.04977914
000020 7f e6 30 3d fa 32 a2 bc 85 e8 a5 bc 30 0c bf bc
       0.04318857 -0.019799698 -0.020252476 -0.023321241
000030 ee 78 f4 3c f9 6f 33 bd 8c b2 c1 3c c1 94 47 bd
       0.02984282 -0.043807957 0.023644708 -0.048725847
000040 6b f9 56 3d f4 35 cc 3c cc 47 0e bd fc 81 25 3d
       0.052483957 0.02492807 -0.03473644 0.040407166
000050 d9 cb f7 3c de 8c 2a bd 54 b8 b5 3c 62 ab 1f 3d
       0.03024857 -0.041638248 0.022182621 0.038981803
000060 2f ab 1d 3d 9d a8 01 3d b4 c1 8d bc 31 72 77 bc
       0.03849333 0.031654943 -0.017304279 -0.015102909
000070 b8 3e 46 bd 15 f0 d7 bc e2 8f 03 bd fe d8 a4 bb
       -0.048399657 -0.026359597 -0.03211964 -0.0050307503

stack.4.0.weight f4 [32]
000000 34 92 8d 3f 3c 74 84 3f 1b 82 82 3f df f3 89 3f
       1.1060243 1.0347972 1.0195955 1.0777549
000010 49 b5 85 3f 1c 54 7d 3f 3e 2a 7f 3f b9 22 93 3f
       1.0445949 0.98956466 0.9967383 1.1494972
000020 9c 61 87 3f 2e d7 92 3f 8f e3 92 3f 4e 02 84 3f
       1.0576663 1.1471918 1.1475695 1.0313203
000030 db 2c 8e 3f 0b ae 94 3f d1 f3 8e 3f 4c cd 96 3f
       1.1107439 1.1615614 1.1168157 1.1781402
000040 ec e1 80 3f 2d 23 85 3f 40 69 8a 3f 49 24 8a 3f
       1.0068946 1.040136 1.081337 1.0792323
000050 9b 87 8c 3f 06 da 88 3f 96 10 80 3f c1 db 86 3f
       1.0978884 1.0691535 1.0005062 1.0535814
000060 b8 d2 a5 3f 3b a9 88 3f 79 e0 8d 3f a7 71 88 3f
       1.2954931 1.0676645 1.1084129 1.0659684
000070 f3 6f 90 3f 22 d5 86 3f d5 3b 88 3f 35 b6 90 3f
       1.1284164 1.0533793 1.0643259 1.1305605

stack.4.0.bias f4 [32]
000000 97 98 2a 3e 2e 50 25 3d 01 8a 5e 3d c3 65 fc 3d
       0.16659771 0.04035967 0.05433083 0.12324097
000010 f2 28 68 3d 18 23 6b 3d 2d 2b e8 3d 7e fb 00 3e
       0.056679673 0.057406515 0.1133636 0.12595937
000020 f0 68 48 3d 63 4d 35 bb 4b 88 2c 3e 8a 7b 8b 3c
       0.0489282 -0.0027664534 0.16848867 0.017026681
000030 5d be aa 3d 78 93 eb 3d e7 2b 21 3d b6 d6 bd 3d
       0.0833709 0.11502737 0.03934851 0.092694685
000040 fe 77 27 3c 67 3d de 3c a4 0d 53 3e 5a 27 f2 3c
       0.010221479 0.027128888 0.20610672 0.02955978
000050 31 c1 27 3d 53 9b a8 3d f9 5b 8e 3d 49 40 39 3e
       0.040955726 0.08232751 0.06951136 0.18090929
000060 6e 53 1f 3e 58 0a 8a 3d e6 ec 83 3e b3 ef 93 3d
       0.1555917 0.06740254 0.25766677 0.072234534
000070 c3 23 0d 3e 75 ad 67 3d ad cb 47 3e da a3 74 3e
       0.13783173 0.056561906 0.1951129 0.2389063

stack.4.0.running_mean f4 [32]
000000 d2 c7 1a 40 fc 41 6e 3f 13 1d a7 3f cc d5 87 be
       2.418446 0.93069434 1.3055748 -0.26530302
000010 b0 83 43 40 d5 1a e5 3e 55 6d 13 40 81 6a 02 40
       3.0549126 0.44747034 2.303548 2.0377505
000020 c7 73 a1 3f 7e 05 cb 3c f1 c6 fd 3f ce 6a 8a bf
       1.2613457 0.024782892 1.9826337 -1.0813844
000030 10 3f 06 40 f9 5d 8b 3f ad a1 f1 bf e6 88 af 3e
       2.097599 1.0888053 -1.8877465 0.34284133
000040 f5 ae a5 3e b8 51 ca 3f dc 88 28 40 af e1 85 3f
       0.32360044 1.5806189 2.6333532 1.0459498
000050 2e 48 d6 be b1 df 84 3f fc 09 07 bf 18 31 7f 40
       -0.41851944 1.0380765 -0.5274961 3.9873714
000060 56 32 23 3f 05 5c ec 3b df ad 2b 40 c0 d1 df 3e
       0.6374868 0.007213118 2.6824872 0.43714714
000070 4f 9b 24 be 06 27 cf 3f a4 b6 26 40 55 be 86 3f
       -0.1607487 1.6183784 2.6048975 1.0526835

stack.4.0.running_var f4 [32]
000000 7f 3c f7 3f a9 6b d2 3f 06 46 01 40 71 05 5e 3f
       1.9315337 1.6439105 2.019899 0.8672705
000010 a3 fc 03 40 ac ae 89 3f a5 60 e9 3f 86 cc 0c 40
       2.0622947 1.0756431 1.8232619 2.1999831
000020 4d 84 db 3f 04 9f 9c 3f f1 40 0f 40 6b be ea 3f
       1.714975 1.2236028 2.2383387 1.8339361
000030 c1 88 9d 3f 3b 5e e2 3f 58 0f 2d 40 4f 24 81 3f
       1.2307359 1.7685007 2.7040615 1.0089206
000040 d5 8b b6 3f 4e c8 bd 3f 05 42 b3 3f 5e 34 be 3f
       1.4261423 1.4826753 1.4004523 1.4859731
000050 cf 0d c7 3f a2 e2 a4 3f 39 51 dd 3f 9d d2 30 40
       1.5551089 1.2881663 1.7290412 2.7628548
000060 11 19 02 40 ab af 8b 3f c6 85 00 40 b1 9e 96 3f
       2.03278 1.0912985 2.008165 1.1767179
000070 ba 9c d9 3f 98 cf d1 3f df b4 0c 40 05 96 09 40
       1.7000954 1.6391478 2.1985395 2.1497815

stack.4.2.weight f4 [32, 32, 3, 3]
000000 91 c2 f7 3c a4 97 ba 3d bf 2e 16 bc d1 2c 81 3c
       0.030244144 0.091109544 -0.009166419 0.01576844
000010 b2 31 c9 bc 13 a6 95 bd e6 a3 e5 3c a6 73 d0 3c
       -0.02455983 -0.07307067 0.028032254 0.02544577
000020 d0 09 37 bd 1c 72 95 3b af 7c aa 3b 29 bc 2c 3d
       -0.044687092 0.004560722 0.0052028517 0.04217163
000030 fa 79 98 bd 4f c3 ae bc 8d 47 27 3d ce 22 bd bd
       -0.0744514 -0.021333365 0.04083972 -0.09235154
000040 38 35 a6 bd c4 1f 8d 3d 8e ff 71 bc 8f a1 99 bc
       -0.081156194 0.068908244 -0.014770402 -0.018753795
000050 64 46 24 bd ec 01 6e bc 02 ca 57 bd 75 7f 72 bd
       -0.040106192 -0.014526825 -0.052682884 -0.059203584
000060 10 fe c8 3c a6 36 1b 3c 6d 16 6f 3d af 15 e2 bc
       0.024535209 0.009473478 0.058370996 -0.02759823
000070 d6 ea 3e bb 6b 62 2e bd 25 7e c6 bd 25 f8 2d 3a
       -0.0029131672 -0.042574327 -0.09692029 0.00066364027
000080 70 27 3a bd cf 46 dd bd 3a a0 ac bd bd b3 f8 3d
       -0.045447767 -0.10804521 -0.08428998 0.12143657
000090 0c 64 e3 bc 34 57 5f bb 9e 2d 41 3d 8b 63 0e bc
       -0.027757667 -0.0034079077 0.047162645 -0.008690725
0000a0 97 4c 3f 3c 79 d8 24 3d 62 6c e5 bd 4f 47 a7 3b
       0.011675975 0.040245507 -0.11202313 0.005104936
0000b0 76 ce 93 bc 4a 2e 0d 3d 4a 90 a0 3c 41 38 4e 3d
       -0.018042784 0.034467973 0.019600052 0.050346617
0000c0 67 cc d7 bc 5d 36 e3 3c 9d 07 e9 3b 9a 6c 49 3c
       -0.026342584 0.027735883 0.0071115033 0.012293959
0000d0 41 80 e9 3d a1 9d ac 3c 4c 19 3e 3d 3d 7b fb bb
       0.114014156 0.021071257 0.046410844 -0.0076746033
0000e0 97 43 23 bb 0d 6e 85 bb 8c 3d 50 3d b7 cb e8 3c
       -0.0024912113 -0.004071957 0.050839946 0.028417451
0000f0 00 f5 26 3c e5 1d 6a 3d ea 2f 28 bd 62 be 41 3d
       0.0101902485 0.057157416 -0.04106132 0.047300704
000100 50 6d a7 bc 61 06 26 bd 0d 04 e1 bd 13 70 fe bb
       -0.020437866 -0.040533427 -0.10987101 -0.007764825
000110 00 9f 81 bd a5 6a e1 3d 19 80 cd 3d 04 8b 95 3d
       -0.06329155 0.11006669 0.10034198 0.07301906
000120 de 34 f2 3c 4b ee a2 3d fc f0 29 3d e8 dd 82 3d
       0.029566225 0.07955607 0.041489586 0.063899815
000130 9c 08 87 3d 55 07 87 bc 4b 2c 95 3d f1 ad fc 3c
       0.06593439 -0.016482988 0.07283839 0.03084466
000140 74 0e a4 bc c7 f4 a9 bd 19 ed 5e bc 68 01 01 3c
       -0.020026423 -0.08298641 -0.013606333 0.00787387
000150 aa 9a 34 bd fa 89 d0 3b 0f 16 25 bd df c1 7a bd
       -0.04409281 0.0063641043 -0.04030424 -0.061220046
000160 11 5b 94 3d d3 3c fe bb 08 e4 1d bd 7f 3d 93 bd
       0.07243932 -0.0077587157 -0.038547546 -0.07189464
000170 63 94 b5 bd d5 a9 dd 3c 2a 6f 82 3b b6 99 18 bd
       -0.08866193 0.027058521 0.003980537 -0.037255965
000180 f3 9c b7 bc 12 c9 2f 3d 72 ad 64 3c 31 26 5f bc
       -0.022413706 0.042916365 0.013957368 -0.013619945
000190 f8 f4 7e bc 07 63 28 3d 24 f6 fe b9 31 9a 32 bc
       -0.015561335 0.041110065 -0.00048630044 -0.01090102
0001a0 96 73 c8 3d f6 e3 c4 bd 3d 2c fe bb 23 61 a1 3c
       0.09787671 -0.096137926 -0.0077567385 0.019699639
0001b0 86 4e e2 bd 84 71 00 be 0c ca 56 bd 14 18 ba 3d
       -0.110501334 -0.12543303 -0.05243878 0.09086624
0001c0 80 fc 01 3e 7f 6c 40 bd 83 65 b4 bd 9d c3 1d 3d
       0.12693977 -0.04697847 -0.08808424 0.03851663
0001d0 a6 67 00 be 4b d0 85 3c cf c5 b1 3c aa bf 17 bd
       -0.12539539 0.016334673 0.021700768 -0.03704802
0001e0 c6 5a 53 3d 25 24 97 3d ee 02 16 bd 0b fd 8c 3d
       0.05160024 0.07379941 -0.036623888 0.068842016
0001f0 49 5b ff 3c d8 4d 1d 3d 92 93 2b bc 3c e8 56 3d
       0.031171458 0.038404316 -0.010472195 0.05246757
000200 5d 3d 96 bd 6b 33 f9 bc a2 98 5c 3d b1 23 c5 bc
       -0.07335923 -0.030420026 0.0538565 -0.02406487
000210 9b 2b 11 be 81 d7 bf bd 06 58 47 3c fc 9f 10 bd
       -0.1417679 -0.09367276 0.0121669825 -0.035308823
000220 9f e3 b3 bd 6f 46 57 3d 78 cb 2f 3d 31 bd bf bc
       -0.0878365 0.052557405 0.042918652 -0.023405643
000230 58 4e 42 3d 6e 3a 33 3e a4 62 22 bd f2 1b 31 bd
       0.047437996 0.17502758 -0.039644852 -0.04323954
000240 f0 02 fe bc 4d 3c b3 bd 95 58 f3 3c a9 3f 74 bd
       -0.03100726 -0.08751736 0.029705325 -0.059631024
000250 06 65 33 3b 40 b7 5f 3c 40 ee 17 bd 1b f3 b2 3d
       0.0027373447 0.01365453 -0.037092447 0.08737775
000260 95 ce 6c bd 12 6d 06 bd 80 5b 00 bd 61 fc 7e 3d
       -0.0578142 -0.03281886 -0.03133726 0.062252406
000270 62 a8 36 3c d5 17 c4 bc 59 f0 e1 bc 10 6c d4 bb
       0.011148544 -0.023937145 -0.027580427 -0.0064826086
000280 ca d0 eb bd c2 a3 b8 bd 58 c7 2d 3c 19 c5 1a bd
       -0.11514433 -0.09015609 0.010606609 -0.037785623
000290 a5 82 46 bd 84 fb 06 bc 41 b7 4f 3d 8c ed ba 3d
       -0.048464436 -0.008238677 0.050711874 0.0912734
0002a0 b8 98 ad bd 45 12 9d bd 14 af 2b 3d 32 e6 92 bd
       -0.084763944 -0.076695 0.041915014 -0.071728125
0002b0 1f 5c 3c bd eb ad 02 bc 45 bb 4f 3d 56 05 29 3d
       -0.04598629 -0.007976036 0.050715704 0.041264854
0002c0 13 be 12 3d 36 4c 97 3c 68 f9 11 bd 96 d3 15 bd
       0.0358258 0.018468957 -0.035638243 -0.036578737
0002d0 60 96 14 bd 7f 66 b6 bd 0b 52 87 3d 82 87 8d bd
       -0.03627622 -0.08906268 0.06607445 -0.06910612
0002e0 8b aa 5a bd b9 82 03 3e 26 32 9a bd 84 62 95 3c
       -0.0533853 0.12842835 -0.07529096 0.018235452
0002f0 7c 1a 31 bd 48 b2 18 3c c0 0b f5 3c f9 84 83 bd
       -0.043238148 0.009319849 0.02991283 -0.06421847
000300 8d 66 bb 3b 4f e0 90 3c 2a f2 93 bd 41 38 35 3b
       0.005719012 0.017685084 -0.072239235 0.0027651938
000310 f0 e1 c8 bc 04 8a b0 3b 55 6d 57 bd 95 a7 fb bc
       -0.024521798 0.0053875465 -0.0525945 -0.030719558
000320 b2 ab f8 bc c4 0f f6 3c 37 6b 71 bd 9f 3c f8 bc
       -0.030355308 0.030036815 -0.05894014 -0.030302344
000330 ae 87 8e 3d 12 0f 48 3d 49 ee f9 bc fc fb 8a bd
       0.069594726 0.048842497 -0.030509131 -0.067863435
000340 30 c0 f4 bd 5d cd 4a 3d 0e f5 08 bd 66 ad 62 3c
       -0.11950719 0.049512256 -0.033436827 0.013835287
000350 a1 2b eb 3d d8 69 5c bc b7 fc 4f bc 27 d0 02 be
       0.11482931 -0.0134529695 -0.012694529 -0.12774716
000360 d0 13 fe 3c a4 35 93 bb af f6 bd 3c 9b 69 08 3e
       0.031015307 -0.0044924784 0.023188917 0.13321535
000370 ce 93 64 3d f7 53 dd 3d 4e 87 8b 3d f6 a1 47 bc
       0.05580502 0.10807031 0.06812917 -0.012184611
000380 0a a4 13 be 40 da 84 bd 58 73 0e bd b6 17 4f bd
       -0.14418045 -0.064869404 -0.03477797 -0.050559722
000390 a5 74 f7 bc ca d1 54 ba e5 2b 63 3d 7f 0d 01 be
       -0.030206988 -0.0008118419 0.055461783 -0.12602805
0003a0 48 26 98 bd 40 0f f2 bc 5f ba 0f bc 86 98 10 3b
       -0.074291766 -0.029548287 -0.008772462 0.0022063567
0003b0 2d ad ed 3c 2e ed 53 bc 6e 7a 6f bd 2b 69 86 bc
       0.02901324 -0.012934966 -0.058466367 -0.01640757
0003c0 0a 94 7d 3d c2 ba e1 3d b1 68 bd 3b a2 2b a5 3c
       0.06190876 0.11021949 0.0057803025 0.020162407
0003d0 23 53 19 bc 85 8f e0 bd 29 1d 16 bd 96 e6 be bc
       -0.0093582 -0.10964874 -0.036648903 -0.023303311
0003e0 9c 42 83 bd 36 ac 1a bd fa f1 98 3d 39 22 ad 3d
       -0.06409189 -0.03776189 0.07468028 0.08453793
0003f0 b6 19 8c 3c bf 6d de 3d fd ba af 3c 3d 35 0f 3d
       0.017102104 0.10860776 0.021451468 0.03496288

stack.4.2.bias f4 [32]
000000 07 0b ea 38 a8 13 48 3d cd 4d ce bb ad 3e 55 bd
       0.000111600435 0.04884687 -0.0062958957 -0.052061725
000010 e0 4d 13 bd 07 77 06 bd 10 46 6d bc d8 e9 b2 bb
       -0.03596294 -0.032828357 -0.014482036 -0.0054600053
000020 e0 7a 6c bc 26 2e 9c bc 53 1d 88 bc ea b2 8a bc
       -0.014433593 -0.019064974 -0.016615545 -0.016931016
000030 de 1d da 3c 7a 67 6a bd ca c3 88 3c c1 e9 f8 3c
       0.02662557 -0.05722759 0.016694922 0.0303849
000040 95 e9 5f bc fb 1d 34 bb f2 59 ba 3c b3 fd 0e bd
       -0.01366653 -0.002748369 0.022747967 -0.034909915
000050 8e 4e 57 bd 05 52 4b bd ee 4c 50 bd d1 70 d3 bc
       -0.05256515 -0.049638767 -0.050854616 -0.025810631
000060 32 54 38 3d f0 29 b9 bc 3a 68 e3 3c 3d 80 15 3d
       0.04500217 -0.022603005 0.02775966 0.03649925
000070 e7 22 3b 3d 29 90 5a 3d 41 d3 dc bc ad ef e0 3c
       0.045687582 0.053360138 -0.026956202 0.027458036
